[2025-08-05 14:12:57][base_learner.py:360][INFO] [RANK0]: DI-engine DRL Policy
MuZeroModel(
  (representation_network): RepresentationNetwork(
    (conv): Conv2d(16, 64, kernel_size=(3, 3), stride=(1, 1), padding=(1, 1), bias=False)
    (norm): BatchNorm2d(64, eps=1e-05, momentum=0.1, affine=True, track_running_stats=True)
    (resblocks): ModuleList(
      (0): ResBlock(
        (act): ReLU(inplace=True)
        (conv1): Sequential(
          (0): Conv2d(64, 64, kernel_size=(3, 3), stride=(1, 1), padding=(1, 1), bias=False)
          (1): BatchNorm2d(64, eps=1e-05, momentum=0.1, affine=True, track_running_stats=True)
          (2): ReLU(inplace=True)
        )
        (conv2): Sequential(
          (0): Conv2d(64, 64, kernel_size=(3, 3), stride=(1, 1), padding=(1, 1), bias=False)
          (1): BatchNorm2d(64, eps=1e-05, momentum=0.1, affine=True, track_running_stats=True)
        )
      )
    )
    (activation): ReLU(inplace=True)
  )
  (dynamics_network): DynamicsNetwork(
    (conv): Conv2d(68, 64, kernel_size=(3, 3), stride=(1, 1), padding=(1, 1), bias=False)
    (norm_common): BatchNorm2d(64, eps=1e-05, momentum=0.1, affine=True, track_running_stats=True)
    (resblocks): ModuleList(
      (0): ResBlock(
        (act): ReLU(inplace=True)
        (conv1): Sequential(
          (0): Conv2d(64, 64, kernel_size=(3, 3), stride=(1, 1), padding=(1, 1), bias=False)
          (1): BatchNorm2d(64, eps=1e-05, momentum=0.1, affine=True, track_running_stats=True)
          (2): ReLU(inplace=True)
        )
        (conv2): Sequential(
          (0): Conv2d(64, 64, kernel_size=(3, 3), stride=(1, 1), padding=(1, 1), bias=False)
          (1): BatchNorm2d(64, eps=1e-05, momentum=0.1, affine=True, track_running_stats=True)
        )
      )
    )
    (conv1x1_reward): Conv2d(64, 16, kernel_size=(1, 1), stride=(1, 1))
    (norm_reward): BatchNorm2d(16, eps=1e-05, momentum=0.1, affine=True, track_running_stats=True)
    (fc_reward_head): Sequential(
      (0): Linear(in_features=256, out_features=32, bias=True)
      (1): BatchNorm1d(32, eps=1e-05, momentum=0.1, affine=True, track_running_stats=True)
      (2): ReLU(inplace=True)
      (3): Linear(in_features=32, out_features=601, bias=True)
    )
    (activation): ReLU(inplace=True)
  )
  (prediction_network): PredictionNetwork(
    (resblocks): ModuleList(
      (0): ResBlock(
        (act): ReLU(inplace=True)
        (conv1): Sequential(
          (0): Conv2d(64, 64, kernel_size=(3, 3), stride=(1, 1), padding=(1, 1), bias=False)
          (1): BatchNorm2d(64, eps=1e-05, momentum=0.1, affine=True, track_running_stats=True)
          (2): ReLU(inplace=True)
        )
        (conv2): Sequential(
          (0): Conv2d(64, 64, kernel_size=(3, 3), stride=(1, 1), padding=(1, 1), bias=False)
          (1): BatchNorm2d(64, eps=1e-05, momentum=0.1, affine=True, track_running_stats=True)
        )
      )
    )
    (conv1x1_value): Conv2d(64, 16, kernel_size=(1, 1), stride=(1, 1))
    (conv1x1_policy): Conv2d(64, 16, kernel_size=(1, 1), stride=(1, 1))
    (norm_value): BatchNorm2d(16, eps=1e-05, momentum=0.1, affine=True, track_running_stats=True)
    (norm_policy): BatchNorm2d(16, eps=1e-05, momentum=0.1, affine=True, track_running_stats=True)
    (activation): ReLU(inplace=True)
    (fc_value): Sequential(
      (0): Linear(in_features=256, out_features=32, bias=True)
      (1): BatchNorm1d(32, eps=1e-05, momentum=0.1, affine=True, track_running_stats=True)
      (2): ReLU(inplace=True)
      (3): Linear(in_features=32, out_features=601, bias=True)
    )
    (fc_policy): Sequential(
      (0): Linear(in_features=256, out_features=32, bias=True)
      (1): BatchNorm1d(32, eps=1e-05, momentum=0.1, affine=True, track_running_stats=True)
      (2): ReLU(inplace=True)
      (3): Linear(in_features=32, out_features=4, bias=True)
    )
  )
)
[2025-08-05 14:13:07][base_learner.py:360][INFO] [RANK0]: learner save ckpt in ./data_gat/game_2048_grid4_gat_ns100_upc200_rer0.0_bs512_heads4_seed0_250805_141249/ckpt/ckpt_best.pth.tar
[2025-08-05 14:13:42][base_learner.py:360][INFO] [RANK0]: === Training Iteration 0 Result ===
[2025-08-05 14:13:42][learner_hook.py:228][INFO] 
+-------+------------------------------------+-------------------------------------+------------------------------------+-----------------------------+
…
