[2025-07-24 04:42:19][base_learner.py:360][INFO] [RANK0]: DI-engine DRL Policy
MuZeroModelMLP(
  (representation_network): RepresentationNetworkMLP(
    (fc_representation): Sequential(
      (0): Linear(in_features=4, out_features=128, bias=True)
      (1): BatchNorm1d(128, eps=1e-05, momentum=0.1, affine=True, track_running_stats=True)
      (2): GELU(approximate='tanh')
      (3): Linear(in_features=128, out_features=128, bias=True)
    )
    (norm): LayerNorm((128,), eps=1e-05, elementwise_affine=True)
  )
  (dynamics_network): DynamicsNetwork(
    (fc_dynamics_1): Sequential(
      (0): Linear(in_features=130, out_features=128, bias=True)
      (1): BatchNorm1d(128, eps=1e-05, momentum=0.1, affine=True, track_running_stats=True)
      (2): ReLU(inplace=True)
      (3): Linear(in_features=128, out_features=128, bias=True)
      (4): BatchNorm1d(128, eps=1e-05, momentum=0.1, affine=True, track_running_stats=True)
      (5): ReLU(inplace=True)
    )
    (fc_dynamics_2): Sequential(
      (0): Linear(in_features=128, out_features=128, bias=True)
      (1): BatchNorm1d(128, eps=1e-05, momentum=0.1, affine=True, track_running_stats=True)
      (2): ReLU(inplace=True)
      (3): Linear(in_features=128, out_features=128, bias=True)
      (4): BatchNorm1d(128, eps=1e-05, momentum=0.1, affine=True, track_running_stats=True)
      (5): ReLU(inplace=True)
    )
    (fc_reward_head): Sequential(
      (0): Linear(in_features=128, out_features=32, bias=True)
      (1): BatchNorm1d(32, eps=1e-05, momentum=0.1, affine=True, track_running_stats=True)
      (2): ReLU(inplace=True)
      (3): Linear(in_features=32, out_features=601, bias=True)
    )
  )
  (prediction_network): PredictionNetworkMLP(
    (fc_prediction_common): Sequential(
      (0): Linear(in_features=128, out_features=128, bias=True)
      (1): BatchNorm1d(128, eps=1e-05, momentum=0.1, affine=True, track_running_stats=True)
      (2): ReLU(inplace=True)
      (3): Linear(in_features=128, out_features=128, bias=True)
      (4): BatchNorm1d(128, eps=1e-05, momentum=0.1, affine=True, track_running_stats=True)
      (5): ReLU(inplace=True)
    )
    (fc_value_head): Sequential(
      (0): Linear(in_features=128, out_features=32, bias=True)
      (1): BatchNorm1d(32, eps=1e-05, momentum=0.1, affine=True, track_running_stats=True)
      (2): ReLU(inplace=True)
      (3): Linear(in_features=32, out_features=601, bias=True)
    )
    (fc_policy_head): Sequential(
      (0): Linear(in_features=128, out_features=32, bias=True)
      (1): BatchNorm1d(32, eps=1e-05, momentum=0.1, affine=True, track_running_stats=True)
      (2): ReLU(inplace=True)
      (3): Linear(in_features=32, out_features=2, bias=True)
    )
  )
  (projection): Sequential(
    (0): Linear(in_features=128, out_features=1024, bias=True)
    (1): BatchNorm1d(1024, eps=1e-05, momentum=0.1, affine=True, track_running_stats=True)
    (2): ReLU(inplace=True)
    (3): Linear(in_features=1024, out_features=1024, bias=True)
    (4): BatchNorm1d(1024, eps=1e-05, momentum=0.1, affine=True, track_running_stats=True)
    (5): ReLU(inplace=True)
    (6): Linear(in_features=1024, out_features=1024, bias=True)
    (7): BatchNorm1d(1024, eps=1e-05, momentum=0.1, affine=True, track_running_stats=True)
  )
  (prediction_head): Sequential(
    (0): Linear(in_features=1024, out_features=512, bias=True)
    (1): BatchNorm1d(512, eps=1e-05, momentum=0.1, affine=True, track_running_stats=True)
    (2): ReLU(inplace=True)
    (3): Linear(in_features=512, out_features=1024, bias=True)
  )
)
[2025-07-24 04:42:23][base_learner.py:360][INFO] [RANK0]: learner save ckpt in ./data_muzero/cartpole_muzero_ns25_upc100_rer0_seed0/ckpt/ckpt_best.pth.tar
[2025-07-24 04:42:28][base_learner.py:360][INFO] [RANK0]: === Training Iteration 0 Result ===
[2025-07-24 04:42:28][learner_hook.py:228][INFO] 
+-------+------------------------------------+-------------------------------------+------------------------------------+-----------------------------+
…
