[2025-08-05 14:24:51][base_learner.py:360][INFO] [RANK0]: DI-engine DRL Policy
GATMuZeroModel(
  (representation_network): GATRepresentationNetwork(
    (input_proj): Linear(in_features=16, out_features=64, bias=True)
    (gat_layers): ModuleList(
      (0): GATConv(64, 64, heads=4)
      (1-2): 2 x GATConv(256, 64, heads=4)
    )
    (output_proj): Sequential(
      (0): Linear(in_features=64, out_features=128, bias=True)
      (1): LayerNorm((128,), eps=1e-05, elementwise_affine=True)
      (2): ReLU()
      (3): Linear(in_features=128, out_features=256, bias=True)
      (4): LayerNorm((256,), eps=1e-05, elementwise_affine=True)
      (5): ReLU()
    )
    (activation): ReLU()
    (dropout): Dropout(p=0.1, inplace=False)
  )
  (dynamics_network): GATDynamicsNetwork(
    (action_embedding): Embedding(4, 64)
    (state_action_fusion): Sequential(
      (0): Linear(in_features=320, out_features=128, bias=True)
      (1): LayerNorm((128,), eps=1e-05, elementwise_affine=True)
      (2): ReLU()
      (3): Linear(in_features=128, out_features=128, bias=True)
      (4): LayerNorm((128,), eps=1e-05, elementwise_affine=True)
      (5): ReLU()
      (6): Linear(in_features=128, out_features=256, bias=True)
      (7): LayerNorm((256,), eps=1e-05, elementwise_affine=True)
      (8): ReLU()
    )
    (to_grid_proj): Linear(in_features=256, out_features=256, bias=True)
    (gat_dynamics): GATRepresentationNetwork(
      (input_proj): Linear(in_features=16, out_features=64, bias=True)
      (gat_layers): ModuleList(
        (0): GATConv(64, 64, heads=4)
        (1): GATConv(256, 64, heads=4)
      )
      (output_proj): Sequential(
        (0): Linear(in_features=64, out_features=128, bias=True)
        (1): LayerNorm((128,), eps=1e-05, elementwise_affine=True)
        (2): ReLU()
        (3): Linear(in_features=128, out_features=256, bias=True)
        (4): LayerNorm((256,), eps=1e-05, elementwise_affine=True)
        (5): ReLU()
      )
      (activation): ReLU()
      (dropout): Dropout(p=0.1, inplace=False)
    )
    (reward_head): Sequential(
      (0): Linear(in_features=256, out_features=64, bias=True)
      (1): LayerNorm((64,), eps=1e-05, elementwise_affine=True)
      (2): ReLU()
      (3): Linear(in_features=64, out_features=64, bias=True)
      (4): LayerNorm((64,), eps=1e-05, elementwise_affine=True)
      (5): ReLU()
      (6): Linear(in_features=64, out_features=601, bias=True)
      (7): LayerNorm((601,), eps=1e-05, elementwise_affine=True)
      (8): ReLU()
    )
  )
  (value_head): Sequential(
    (0): Linear(in_features=256, out_features=32, bias=True)
    (1): LayerNorm((32,), eps=1e-05, elementwise_affine=True)
    (2): ReLU()
    (3): Linear(in_features=32, out_features=601, bias=True)
  )
  (policy_head): Sequential(
    (0): Linear(in_features=256, out_features=32, bias=True)
    (1): LayerNorm((32,), eps=1e-05, elementwise_affine=True)
    (2): ReLU()
    (3): Linear(in_features=32, out_features=4, bias=True)
  )
)
[2025-08-05 14:25:31][base_learner.py:360][INFO] [RANK0]: learner save ckpt in ./data_gat/game_2048_grid4_gat_ns100_upc200_rer0.0_bs512_heads4_seed0_250805_142446/ckpt/ckpt_best.pth.tar
[2025-08-05 14:27:12][base_learner.py:360][INFO] [RANK0]: === Training Iteration 0 Result ===
[2025-08-05 14:27:12][learner_hook.py:228][INFO] 
+-------+------------------------------------+-------------------------------------+------------------------------------+-----------------------------+
…
